…
&lt;p&gt;Tại sao phải tạo ra những anchors này. Theo cách hiểu của bản thân tôi thì, trong bài toán xác định vị trí vật thể, số lượng đầu ra của mỗi ảnh là khác nhau. Ví dụ một bức ảnh có thể có 2 vật thể, một bức ảnh khác có 4 vật thể. Vì số lượng output là không cố định ta phải dựa vào các anchor để cố định hóa số lượng output này. &lt;/p&gt;
&lt;p&gt;Đối với mỗi bức ảnh, ta đều sinh ra các anchors tương ứng phụ thuộc vào kích cỡ của ảnh đó, bằng cách tính giá trị overlap của anchors với ground truth boxes, ta có thể xác định được anchors đó là positive hay negative. &lt;/p&gt;
&lt;div class="highlight"&gt;&lt;pre&gt;&lt;span&gt;&lt;/span&gt;&lt;code&gt;RPN (
(features): Sequential (
    (0): Conv2d(3, 64, kernel_size=(3, 3), stride=(1, 1), padding=(1, 1))
    (1): ReLU (inplace)
    (2): Conv2d(64, 64, kernel_size=(3, 3), stride=(1, 1), padding=(1, 1))
    (3): ReLU (inplace)
    (4): MaxPool2d (size=(2, 2), stride=(2, 2), dilation=(1, 1))
    (5): Conv2d(64, 128, kernel_size=(3, 3), stride=(1, 1), padding=(1, 1))
    (6): ReLU (inplace)
    (7): Conv2d(128, 128, kernel_size=(3, 3), stride=(1, 1), padding=(1, 1))
    (8): ReLU (inplace)
    (9): MaxPool2d (size=(2, 2), stride=(2, 2), dilation=(1, 1))
    (10): Conv2d(128, 256, kernel_size=(3, 3), stride=(1, 1), padding=(1, 1))
    (11): ReLU (inplace)
    (12): Conv2d(256, 256, kernel_size=(3, 3), stride=(1, 1), padding=(1, 1))
    (13): ReLU (inplace)
    (14): Conv2d(256, 256, kernel_size=(3, 3), stride=(1, 1), padding=(1, 1))
    (15): ReLU (inplace)
    (16): MaxPool2d (size=(2, 2), stride=(2, 2), dilation=(1, 1))
    (17): Conv2d(256, 512, kernel_size=(3, 3), stride=(1, 1), padding=(1, 1))
    (18): ReLU (inplace)
    (19): Conv2d(512, 512, kernel_size=(3, 3), stride=(1, 1), padding=(1, 1))
    (20): ReLU (inplace)
    (21): Conv2d(512, 512, kernel_size=(3, 3), stride=(1, 1), padding=(1, 1))
    (22): ReLU (inplace)
    (23): MaxPool2d (size=(2, 2), stride=(2, 2), dilation=(1, 1))
    (24): Conv2d(512, 512, kernel_size=(3, 3), stride=(1, 1), padding=(1, 1))
    (25): ReLU (inplace)
    (26): Conv2d(512, 512, kernel_size=(3, 3), stride=(1, 1), padding=(1, 1))
    (27): ReLU (inplace)
    (28): Conv2d(512, 512, kernel_size=(3, 3), stride=(1, 1), padding=(1, 1))
    (29): ReLU (inplace)
    (30): MaxPool2d (size=(2, 2), stride=(2, 2), dilation=(1, 1))
)
(conv1): Conv2d (
    (conv): Conv2d(512, 512, kernel_size=(3, 3), stride=(1, 1), padding=(1, 1))
    (relu): ReLU (inplace)
)
(score_conv): Conv2d (
    (conv): Conv2d(512, 18, kernel_size=(1, 1), stride=(1, 1))
)
(bbox_conv): Conv2d (
    (conv): Conv2d(512, 36, kernel_size=(1, 1), stride=(1, 1)))
)
&lt;/code&gt;&lt;/pre&gt;&lt;/div&gt;

&lt;/li&gt;
&lt;/ol&gt;
&lt;h4 id="anchors"&gt;Anchors&lt;/h4&gt;
&lt;p&gt;&lt;img src="/images/rpn/anchors.png" width="600" title="'RPN'" alt="'RPN'"&gt;&lt;/p&gt;
&lt;p&gt;Sau khi đã có đầu ra của các region proposal, chúng ta sẽ tìm hiểu về khái niệm anchors. Tại mỗi vị trí của sliding window trên convolutiona
…
